data/mmd_generator/generator.pt (torch, 76066 bytes, 5 tensors)

rnn.weight_ih_l0 f4 [256, 6]
00000000: 9479 8ebd 4bcb d6bb e60a a8bd 4e54 423d
00000010: df36 d0bd f501 bb3d 24b0 e1bd 752c debd
00000020: 7a83 bdbd 5c87 713d 971f 17bd 5403 443d
00000030: c785 c0bd 0191 a6bd 6e63 63bd 45cf 9fbc
00000040: 204b bbbd 6650 993d 1f8f 72bc bed9 063d
00000050: a72f 9f3d 5ab7 dd3c 51c3 0f3d 034b ea3d
00000060: f80c 43bd 5190 133d e083 4ebd ed32 ad3d
00000070: bc12 c73d 303f ffbd 3375 b33d cba1 523d
00000080: c0d6 8e3d 87ca 583d 3c80 d43d 65d1 87bc
00000090: 0546 09be 8d77 24bc 954a cebd 593c ecbb
000000a0: 73ae 3abb 69a2 a6bd a903 f23b 75e2 123e
000000b0: 5ab7 993c 395d b3bb 8fb1 03bd f289 483d
000000c0: 94c1 a43d 6806 9e3d 7cb7 0a3d fabc dc3c
000000d0: a89a ff3c c6ad 083d 6cb2 0bbd b758 d9bd
000000e0: 7e4f b7bd ab68 d63d aef9 0b3c 0627 c9bd
000000f0: 009b 903b 8290 c63d d4bd 00be c966 aabd
00000100: 453e 55bd 4736 8fba af57 cfbc 1e8e 42bc
00000110: 268a fcbd 3939 863d 61e1 d73d 69ae a33d
00000120: a8ea a8bd 7e44 c7bd 2aad 253d 1ed3 483c
00000130: 011d 333d 9889 03be 265b a53b 1eb3 bb3d
00000140: 8536 443d dca7 003b b02c d43c 83d8 9cbc
00000150: e4d2 aebd 462d 10bd d175 81bd 019a d63d
00000160: ad2c 953d aaf9 2d3d c13c b7bd 75d7 c93d
00000170: a6fb 393d a1b7 a83d 8c47 42bd 080a 823c
00000180: 36d2 d43d 1434 993d 371a ce3d 23fa cdbc
00000190: 0455 c73d 2d59 c6bd 4e95 c43c 7b73 9abd
000001a0: bd16 a2bc 99e4 17bd 4df9 e83b b9bb da3d
000001b0: 5afd 893d c068 0abc 5c38 aa3d b142 98bd
000001c0: ee5c 6f3d c106 a3bc 0b61 febb ddf7 943c
000001d0: 0d7d acbd 8bcd 933c 4e32 2f3d ffd3 cd3d
000001e0: 1526 6bbd 87c1 503d 6b30 e53d 4678 5dbd
000001f0: 9203 f13d 48e3 7abd 2867 1c3d 9cd4 713d
00000200: 100b 9b3c 4d09 d13d 861f 43bd 9128 0e3d
00000210: 1125 eebc 1f1c 95bd f7bd d7bc 352d bfbd
00000220: 030f 883d 2327 f8ba 4e56 9b3c 7895 26bd
00000230: 596c c8bc 5048 2abd 3e37 0a3d b247 e53d
00000240: 4d2b 063d bea7 5bbd ffd5 8dbd 83c3 5b3c
00000250: a18d adbd 2189 cebd 99f0 c7bd cd51 2dbd
00000260: dd57 d63a c76b bf3d f7b8 543d 8a1b b53d
00000270: 3d00 8cbd 04d3 3a3c 6ba6 f5bd 2a21 8d3d
00000280: ab85 e43c 214c e63d 24ad a0bd 2de5 cf3d
00000290: 7be9 e03d 6df0 c23d 2d94 7c3c 88b7 d93d
000002a0: 4c6a c93d ce2a c03d f778 b33b 0252 c0bd
000002b0: d3da f1ba 29ea 963c f447 d1bd bc1b a4bd
000002c0: a84c 01be e93b 37bd 66a3 da3d 3b89 c03c
000002d0: 258d 34bd 6309 0d3d 95f8 e83d 521f b0bd
000002e0: cb69 a1bd 256c 65bd 56a9 83bd f5f7 903d
000002f0: 2faa bc3d 4964 e6bd 57f7 c9bd 0636 05be
00000300: 473e d73c e4eb ba3d 9021 a6bd 1200 6cbd
00000310: b3d3 193d 5a92 a6bd a58a ae3d 03ea ff3c
00000320: 84c5 f7bc 792e 6e3b 49cc 1f3d 594e 47bd
00000330: 0580 aebd 3966 06bb c04d b7bb e0f1 f53b
00000340: f524 143c ecf8 913d f92f e2bc aab6 223c
00000350: eaae 0f3d 3240 b7bd d1cc ae3c 1f51 17bd
00000360: 23d4 923d a694 8ebd 50e2 3c3c 3882 083c
00000370: 76bc cbbd 0e1a c9bd 2820 f93c 05e3 3cbd
00000380: 3e4f 793d 6aed fabd a4c7 74bd ff41 d7bd
00000390: d344 7e3d be28 91ba 6bf7 74bc 1ee4 94bc
000003a0: 602a 9ebd 69cf e93c fd1a 673c e46b b3bd
000003b0: ef25 563d c023 47ba 302b fdbd 3fbb 723d
000003c0: 24df 4f3d dab1 4abc c258 92bd 8f5b a8ba
000003d0: ffe6 c43d 64e5 e93d 4840 abbd 7db1 73bd
000003e0: afd4 d03d 6957 693d 713c 863d 23a5 91bd
000003f0: cb7d ec3d b4a0 c0bd e34f f53b 3ae7 373c
-0.06956783 -0.006554996 -0.08205204 0.04744368 -0.10166716 0.09131233 -0.11019924 -0.10848323
-0.09253593 0.05896698 -0.03689536 0.047854736 -0.09400516 -0.08133126 -0.055514745 -0.019508014
-0.09145188 0.07486038 -0.014804631 0.0329225 0.07772761 0.027064968 0.035098378 0.114400886
-0.04761979 0.036026303 -0.050418735 0.08456979 0.0972037 -0.12463224 0.08762588 0.05142383
0.06974554 0.05292752 0.10376021 -0.01657934 -0.13405617 -0.010038269 -0.10072819 -0.0072093424
-0.0028485327 -0.08136446 0.00738569 0.14344199 0.018764187 -0.0054737595 -0.032151755 0.04895968
0.080447346 0.07716066 0.03386639 0.02694558 0.031201676 0.03336885 -0.034105703 -0.10612624
-0.08950709 0.104691826 0.008543415 -0.09821896 0.0044130087 0.096955314 -0.12572414 -0.08320386
-0.052061338 -0.001092621 -0.025310365 -0.011874704 -0.12331037 0.06553883 0.105410345 0.079922505
-0.08247882 -0.09729861 0.040448345 0.0122573655 0.043728832 -0.12845457 0.005046266 0.09165023
0.047903556 0.0019631302 0.025900215 -0.01914621 -0.08536318 -0.035199426 -0.063213 0.10478593
0.07283912 0.042474426 -0.08947135 0.09855548 0.045406006 0.082381494 -0.047431514 0.015873924
0.10391657 0.07480636 0.10063594 -0.025143689 0.09733012 -0.09684978 0.023996975 -0.075415574
-0.019786233 -0.037083242 0.007109797 0.106803365 0.06737776 -0.008447826 0.08311531 -0.074345954
0.058438234 -0.019900681 -0.0077630333 0.018184597 -0.08422289 0.018042346 0.042772584 0.10050201
-0.057409365 0.050965812 0.111908756 -0.05406978 0.11768259 -0.06125191 0.038184315 0.05904065
0.018926173 0.10206852 -0.047637485 0.034706656 -0.029070409 -0.07280754 -0.0263357 -0.093347944
0.06643488 -0.0018932562 0.018962052 -0.04066989 -0.024465727 -0.04157287 0.03374409 0.111953154
0.03275614 -0.05362677 -0.06925582 0.013413313 -0.08474279 -0.10084749 -0.09762687 -0.04231434
0.001635309 0.09346729 0.05193421 0.08843143 -0.06835983 0.011402849 -0.11994632 0.06891091
0.02789577 0.11244989 -0.07845524 0.10151134 0.10982033 0.09518514 0.015416187 0.10630709
0.09834728 0.09383164 0.0054770666 -0.09390642 -0.0018452056 0.018422203 -0.10218802 -0.080131024
-0.12626898 -0.04473487 0.10675697 0.023502937 -0.04407992 0.03443278 0.11375538 -0.08599724
-0.078815065 -0.056011338 -0.06428783 0.07078544 0.092121474 -0.112495966 -0.098616295 -0.1300889
0.026274813 0.09127024 -0.0811187 -0.057617255 0.037555408 -0.08133383 0.08522538 0.031239515
-0.03024555 0.0036343618 0.03901318 -0.048658703 -0.085205115 -0.0020507707 -0.0055939853 0.0075056404
0.009042014 0.07127556 -0.027610766 0.009931246 0.03507892 -0.08947791 0.021337898 -0.036942597
0.07169368 -0.06961946 0.0115285665 0.008331828 -0.099480554 -0.09819423 0.030410841 -0.04611494
0.060866587 -0.122523144 -0.059760705 -0.10510635 0.062077355 -0.0011074764 -0.014951567 -0.018175181
-0.07722926 0.028541284 0.014105556 -0.08760813 0.05228227 -0.0007596575 -0.12361753 0.059260603
0.050749913 -0.012371505 -0.071458355 -0.0012844669 0.096143715 0.11420706 -0.0836187 -0.059495438
0.10196816 0.056968126 0.06554497 -0.071115755 0.115474306 -0.09405652 0.00748633 0.011224562

rnn.weight_hh_l0 f4 [256, 64]
00000000: 15fd 503d 1ed8 87bd 919b c6bc 7efb 97bd
00000010: d7ff 893d 226d 8cbd 38cb 84bd 45b5 cc3c
00000020: c05d e03d 51f4 bc3d 05d9 ecbd 2a43 0dbe
00000030: a427 bb3d 6d14 85bd b9ab e9bd 12af c4bb
00000040: 4ab9 b43d 6913 98bc 1e8a e43c 9497 fcbd
00000050: 57b2 dc3d 12bc a73d 1193 a83d 7b28 a23d
00000060: 3a8c 83bd 33ff dfbd aa45 aabb 8758 873d
00000070: 7329 5cbd 6fc9 073d b16f 36bc a7ac 94bc
00000080: 5438 eb3c 1e62 c83d 566d ab3c dcc5 763c
00000090: eb5e be3c c47d 883c 43a6 1ebd bb5e 30bc
000000a0: a3a2 db3c 2a08 babd fd50 13bb ad26 f6bd
000000b0: 4fb4 dabd cf02 d13b 83e9 d53c 3ef8 a43c
000000c0: e72a 32bd 5ac8 80bc aa8b 49bc 57a9 dc3b
000000d0: a488 b4bd d071 f83c f360 ff3c 6c8a afbb
000000e0: ac87 8cbc 3aa5 833d 5b66 b13d 9bf7 aa3b
000000f0: dd54 c7bd 2b67 c7bd 11cf edbc 3f7a e5bd
00000100: 9dc8 bebd 1aa5 06bd 38b9 5bbd 1a9d 2bbc
00000110: b712 173d ac55 b53d 3864 fe3d dc88 36bc
00000120: b9de bfbd 126e a93d 593b d23d fbe6 ae3d
00000130: 1013 b53c fdb0 9b3d e101 80b9 b981 bbbd
00000140: 90a3 d1bd e6b7 9fbd 128e ba3c 1cdb 0abd
00000150: e480 133d f2b4 363d 54a6 a9bd 96f4 083d
00000160: 0ffd f53d 2a6a 993d c62b b0bc 8176 d7bc
00000170: 9326 42bd 573d 2a3d 9fa6 99bd 2749 e33d
00000180: dd83 623a 2edd 8ebd 2599 8abd 8a63 2abd
00000190: 3131 c5bd 3805 3abd 4b34 f1bd f36a 393d
000001a0: 042e 21bd f3b7 1c3d fc12 85bd 30cc 82bd
000001b0: a377 8abd 8b07 673a 7a5e abbd 4301 e9bd
000001c0: 211c ef3c bb00 debd 0cb5 cf3d c7ac ef3d
000001d0: 0b42 843d 3690 b03d 3d86 acbd ff60 323c
000001e0: 8c7f 953c 4e75 e23d 776b e6bd e51f edbc
000001f0: 648e 813d a3ac 6e3d 4e86 12be 07d1 f13d
00000200: c9e5 b53d d130 cd3d 4a8c 1bbd b7c2 93bd
00000210: e30a cf3c cea0 c63d 57de ea3d fed0 e8bd
00000220: 1428 783d 0d71 d9bc 3326 7cbd 3759 b53d
00000230: feed 863d 32e1 123d 425d 94bd c70d e83d
00000240: c6ed e2bc 58ba 3c3c ca73 12bd 4308 c9bd
00000250: c9b6 91bc 84ec fd3c efc2 a43b 2154 2ebd
00000260: 2bd4 c13d 89ef b9bc d975 b1bd 916b 35bd
00000270: 91b0 16bd 87e3 b43d 58ac bb3d 23e9 563d
00000280: 5327 ea3d dacf e73d ed8b 193d d7c0 a13d
00000290: a230 3e3d fea1 763c 6167 da3d 8e7d 22bd
000002a0: cd7e d8bd 73fb f5bd 249e ad3d b64c a2bd
000002b0: f1fb 733d 7b20 a9ba 0832 03be f587 3bbd
000002c0: 43db 183d 2fc9 c1bb e220 623d c6b9 77bd
000002d0: 8938 4cbd 8c45 69bb 2d7d cebd 6777 f3bc
000002e0: ddda 843c 1550 663d 8a10 05bd 5e42 903d
000002f0: 5ab4 17bc b199 01bd 8f5e 65bc 31a1 a03d
00000300: ac15 4a3c 917c 99bd 1c62 85bd dcea ffbb
00000310: e870 9d3c 089e 95bd 8642 dfbd 58c6 c03c
00000320: 20b7 a23c 8a9e 99bd 3d1c 8abd 47a7 e13d
00000330: 33ec 9cbd 1ac6 c33d e33e 9abd 2eea 2a3d
00000340: cc80 38bc b78e 5c3d 1c10 7a3d 6bfa 41bd
00000350: 1cc1 dcbd 375a 4d3b 331e 993c 104a d2bc
00000360: ce16 553d 441b f53d 26d6 2fbd 033a 433d
00000370: 5970 063d 3ba9 9c3d 85a2 6bbd 7f97 e9bd
00000380: 93ed 9ebd 32d3 99bb 29f3 ebbd b49b ce3d
00000390: ab86 bf3d fa34 e43c 45f5 c7bd 5822 01be
000003a0: 70f8 913d 0d67 babd 4116 4b3d 8cbd 023e
000003b0: 176c 85bd 2631 533d a996 89bc 06c9 333d
000003c0: 1e93 573d 9ab2 01bc 3169 e33c f05e 19bd
000003d0: 1b52 1e3d e90c 073d 14c9 b13d 80e0 dc3d
000003e0: dd73 393d 4994 ce3d 0c7f f1bd b23c 87bd
000003f0: 77df ecbd 9dab 12bd fc25 f43d 3edb f0bd
0.051022608 -0.06633018 -0.024244102 -0.07421015 0.06738251 -0.06856753 -0.064840734 0.02498878
0.109553814 0.09226287 -0.11564831 -0.13795152 0.0913842 -0.064980365 -0.114097066 -0.0060023153
0.088244036 -0.018563943 0.02789789 -0.12333599 0.10776203 0.081901684 0.08231176 0.07917877
-0.064232305 -0.10937347 -0.005196293 0.06608682 -0.053750467 0.033151086 -0.011135028 -0.018148733
0.028713383 0.09784339 0.020926159 0.015061822 0.02323862 0.016661532 -0.03873278 -0.010764773
0.02681095 -0.090835884 -0.0022478693 -0.120190956 -0.106789224 0.0063785086 0.026112324 0.020137902
-0.043497946 -0.015720535 -0.012301365 0.006734054 -0.08815125 0.030327708 0.031174159 -0.0053570773
-0.017154537 0.06427999 0.08662101 0.005217505 -0.09732983 -0.097364746 -0.029029401 -0.11204957
-0.09315608 -0.032872297 -0.053643435 -0.010474468 0.036883082 0.08854231 0.12421459 -0.011141028
-0.09368653 0.08272947 0.10265226 0.0854015 0.022103816 0.07602117 -0.00024415462 -0.09155602
-0.10236275 -0.07798748 0.022772823 -0.033900365 0.03601159 0.044606157 -0.08283678 0.03343638
0.12011158 0.07490952 -0.021505248 -0.026301624 -0.04740007 0.041562404 -0.075024836 0.11097937
0.0008640865 -0.069757804 -0.06767491 -0.041598834 -0.09628523 -0.045415133 -0.11777552 0.04526801
-0.039350525 0.038261365 -0.064977616 -0.06386602 -0.067611 0.00088130747 -0.08367629 -0.11377194
0.029188218 -0.10839983 0.10141954 0.117028765 0.06457909 0.08621256 -0.084240414 0.0108873835
0.018249296 0.1105753 -0.11250966 -0.028945873 0.06325987 0.058270108 -0.14309046 0.11807447
0.08881719 0.100190766 -0.037975587 -0.07214873 0.025273746 0.0969864 0.11468189 -0.11367987
0.060585096 -0.026543165 -0.061559867 0.08854907 0.06588362 0.035859294 -0.0724435 0.11330753
-0.02770127 0.011519037 -0.035754956 -0.09816029 -0.017787354 0.030996569 0.0050281207 -0.0425607
0.09464296 -0.022697227 -0.08665056 -0.044292036 -0.03678948 0.0883246 0.09163731 0.05246843
0.11433282 0.113189414 0.03748696 0.078981094 0.0464331 0.01505327 0.10664249 -0.03967052
-0.1057106 -0.12010851 0.084774286 -0.07924788 0.059566442 -0.0012903357 -0.12812054 -0.045783956
0.03731848 -0.0059138755 0.05520714 -0.0604799 -0.049858604 -0.0035594432 -0.10082469 -0.029720021
0.016217643 0.056228716 -0.032486476 0.070439085 -0.009259308 -0.031640712 -0.013999595 0.07843245
0.012334269 -0.07494462 -0.065128535 -0.00780998 0.019218877 -0.07305533 -0.1090136 0.023532078
0.019862711 -0.07500942 -0.06743667 0.11018234 -0.07662239 0.09559269 -0.07531526 0.041727237
-0.011261176 0.05384704 0.06105052 -0.047357958 -0.1077902 0.003133429 0.018691158 -0.025670081
0.0520237 0.11968091 -0.042928837 0.047662746 0.032821987 0.07649466 -0.057528038 -0.11405849
-0.077601574 -0.004694366 -0.115209885 0.10088292 0.09351858 0.027857292 -0.09763578 -0.12610757
0.07127464 -0.091016866 0.04958177 0.12767619 -0.06514757 0.051560543 -0.016795473 0.043892883
0.052630536 -0.007916117 0.02776012 -0.037444055 0.03865252 0.032971296 0.08680931 0.107850075
0.04527651 0.10086877 -0.117918104 -0.066033736 -0.1156606 -0.035808194 0.119213074 -0.11760567

rnn.bias_ih_l0 f4 [256]
00000000: 60a6 f33c ae70 9cbd 578e cbbd aa52 723c
00000010: 54a8 8d3c d7b0 333c 843c fbbd e65e cc3d
00000020: 7436 e3bc 076d c73d c2c7 d8bd b42f cbbd
00000030: 0d59 783d 782c e53d 41e5 7a3d 144e 3b3b
00000040: 50fa 5cbb 86ef fdbd df93 a3bc 3c1a efbd
00000050: 5815 92bc f6f1 03bd a916 623b 9c2c e6ba
00000060: 34aa b43d ec53 df3d 1545 9b3d 27d9 c93d
00000070: 2cb6 d23d b86f d83d e9be ebbd 53de 07be
00000080: db7a 8dbc ca61 3d3d 2642 cf3d a9b4 83bd
00000090: a4e3 92bd 5ba0 1bbb 2838 ce3d 33aa c6bd
000000a0: 018e f83c f5c2 d3bd 6c2a 603d ebf0 81bd
000000b0: b757 b93d 891f 553c 39a6 b93d 86c0 893d
000000c0: 2534 ff3c 517f 80bd fd58 bdbd 4319 ce3d
000000d0: 7bb4 743d d3f1 a93d 9214 e53d fec6 ed3d
000000e0: 1e30 273d 74ad 01bd 1394 11bc bcac 783d
000000f0: bebf ed3d a55a 623d 4d29 833d bab6 b6bd
00000100: ae6c 063c 080f d83d 95ab 683d 004a cabc
00000110: 86fd aabc 276b ed3d 0010 123d 821f aabd
00000120: 0a6f dbbd 34a5 43bc 2e6b b3bd 9d99 78bc
00000130: 86cb 0c3d 141a b83d 13d5 ebbd 59a8 3bbc
00000140: 39ab 563d 926b 023d 540c d2bd 8203 9dbd
00000150: 8468 8abc a00f bf3d f2ef 183c 6b38 363c
00000160: 016f eabd bc10 243d 9e8c 9e3d 92b6 aabc
00000170: 1276 b5bc 7bf1 a43d 3818 c7bd c38e 3a3d
00000180: d88b 96bd f8fd 843c 5340 ae3c 671a 76bd
00000190: bafc cf3c 19d7 10bc 7f33 d4bd 6119 b3bd
000001a0: f04d a6bd fdd5 37bc d86f 683c e99b 01be
000001b0: 2af5 b23c d3a3 0d3d 3603 0abd 75b7 c6bd
000001c0: 58f3 85bd 5d75 463d d9af 4fbd 4be7 b93d
000001d0: cdab a0bb 3102 983d a40a 27bd fc5b e03d
000001e0: 112d 3a3d a902 c13d 7bdb b63d 1ae6 8a3c
000001f0: 44cb f93c f2de c13d 4c4b 61bd 1b96 893d
00000200: 56cb cdbd 3aef fd3d 6e67 dbbd d6a2 da3c
00000210: 7266 84bd 9fbd 96bd ad4c d0bd 9d01 29bd
00000220: dc0d dfbd f422 ab3d ace2 f63d 366f 82bd
00000230: 60e8 abbc a7a4 62bd 8a37 d3bc 7a5e 873d
00000240: 81cf e33c 6ce9 c1bd fa6b 7fbc b7aa 81bd
00000250: 8f6b 8abd 63e5 dfbd 4ab6 5ebd 7105 563d
00000260: bcba dcbd e9cc 2e3a 27d6 253d 17b2 c93c
00000270: b319 ca3d bb47 f7bd 5014 673d 6c13 be3c
00000280: 55d7 843c 91c3 56bd bd6f dbbd 04c5 993b
00000290: a712 dd38 1b09 883c 3cf7 583d 0010 9f3c
000002a0: 4031 f03d 43b6 b93d 1258 b1bd 1db8 8f3c
000002b0: 2142 58bd 4ced 9fbc 07fb ec3d 4a1b 3d3d
000002c0: 2d85 323d 8fbe 853d f661 a9bd d042 c6bc
000002d0: 7a5c 5a3c d037 19bd 4387 cd3d 8ba1 5c3c
000002e0: 8228 013c 490d e7bc 65e4 22bd a9f2 13bd
000002f0: b4f0 18bd c94b 8ebd 7f77 9e3d 98b8 9b3d
00000300: dbd6 483d 2461 ee3d 679b be3c 2cd7 cb3b
00000310: 871d 7e3d 9158 0dbd 2a90 9f3c b1a8 cf3d
00000320: fdc7 9e3d 6b39 9ebd 67d7 163d 73b2 bc3d
00000330: 4f59 1c3d df19 10bd 5394 2aba 8c64 21bd
00000340: 02c9 713d 9782 04be 82f2 c7bd b017 a63d
00000350: e37a 17bd d15c 413d d869 8dbd fd6c e4bd
00000360: 5b4b edb9 37b2 eabd bac8 e9bc b848 e4bd
00000370: 7faf f4bd e4b5 cfbc 0187 043d 1c26 543d
00000380: 636f bdbc 8cb7 3fbd fd88 9cbd d77a f3bd
00000390: 3e6e b33d 5a23 893d 94af 923d e083 48bd
000003a0: 9e08 e6bd 75de f03b c6b5 42bd 5de0 87bd
000003b0: 5e02 a1bd 2ee7 dbbd d88f d43d 3af7 453d
000003c0: 68ee c8bc 4ad7 d83c 12bc 38bc 0e63 a63d
000003d0: 3bc9 a73c df37 5abd 939f c9bd b642 23bb
000003e0: 75fe c03d a0a2 bebc 4ee3 f3bd 1c3e 2d3d
000003f0: f2ad c53d 0f97 e2bd 5f92 10be c746 d7bd
0.02974242 -0.076386794 -0.099392585 0.014790216 0.01729218 0.010967455 -0.12267402 0.09979038
-0.027735926 0.09737592 -0.10584976 -0.09921208 0.0606318 0.11190122 0.06125379 0.0028580474
-0.0033718534 -0.12399201 -0.019967971 -0.11674926 -0.017832443 -0.032213174 0.003449837 -0.0017560902
0.08821526 0.10904679 0.07581536 0.09855872 0.10288653 0.10568184 -0.115110226 -0.13268404
-0.017270496 0.046235837 0.10120039 -0.064309426 -0.07172325 -0.0023746702 0.10069305 -0.09700432
0.03034115 -0.103399195 0.054727957 -0.063447796 0.090499334 0.013008007 0.090649076 0.06726174
0.031152794 -0.06274284 -0.09245489 0.10063412 0.059742432 0.082980774 0.11185564 0.116102204
0.040817373 -0.03165956 -0.008885401 0.060711607 0.116088375 0.055262227 0.06404362 -0.08921571
0.008204622 0.10549742 0.05680426 -0.02469349 -0.020872843 0.11592703 0.03565979 -0.08306791
-0.107145384 -0.011941243 -0.08760677 -0.015173343 0.034373783 0.08989349 -0.1151525 -0.011453711
0.052409384 0.03184087 -0.10256258 -0.07666685 -0.01689554 0.09329152 0.009334551 0.0111218495
-0.114469536 0.04005502 0.07741664 -0.02083901 -0.022151027 0.08053871 -0.09721416 0.045546304
-0.07350892 0.016234383 0.021270907 -0.060083773 0.025389064 -0.008840346 -0.103613846 -0.08745075
-0.08120334 -0.011220452 0.014186822 -0.12657131 0.021845419 0.034580063 -0.03369447 -0.097029604
-0.06540555 0.04845177 -0.05070481 0.09077319 -0.0049032927 0.07422293 -0.040781632 0.109550446
0.045453135 0.094243355 0.08928581 0.016955424 0.030492432 0.094663516 -0.05500345 0.067180835
-0.10048549 0.123991445 -0.10713087 0.026688974 -0.064648524 -0.07360386 -0.10170875 -0.041261304
-0.10891315 0.08356276 0.12054953 -0.06368868 -0.020984828 -0.055332806 -0.025783319 0.06609817
0.027808907 -0.0946835 -0.015589708 -0.063313894 -0.067587964 -0.10932424 -0.054373063 0.052251283
-0.10777804 0.0006668107 0.040487435 0.024621053 0.09868183 -0.120742284 0.056415856 0.02320262
0.01621596 -0.0524326 -0.10714672 0.0046926755 0.000105415755 0.016605904 0.052970156 0.01941681
0.11728144 0.09067967 -0.08659376 0.017543847 -0.05279744 -0.019522332 0.11571317 0.046168603
0.043584038 0.06530487 -0.08270638 -0.02420178 0.013327712 -0.037406743 0.10035565 0.013466249
0.007883193 -0.028204577 -0.039768595 -0.03612009 -0.037338927 -0.069480486 0.07737636 0.07603568
0.049033027 0.11639622 0.023267461 0.006220719 0.06203988 -0.03450829 0.019477922 0.10139597
0.077529885 -0.07725795 0.036826517 0.09213724 0.03817111 -0.035180923 -0.00065070874 -0.03940253
0.059029587 -0.12940441 -0.097630516 0.08109987 -0.03698243 0.047207657 -0.06904954 -0.111536
-0.00045260307 -0.11459773 -0.028538097 -0.111466825 -0.11947536 -0.025355287 0.032355312 0.051794156
-0.023124402 -0.046805903 -0.07643316 -0.11888664 0.087612614 0.06696196 0.07162395 -0.04895389
-0.11232112 0.0073507377 -0.047536634 -0.06634591 -0.0786178 -0.107374534 0.103789985 0.048331477
-0.024527743 0.026469845 -0.011275308 0.08124362 0.020481696 -0.05327594 -0.098448895 -0.002491159
0.09423534 -0.023270905 -0.11908589 0.04229556 0.09652318 -0.110639684 -0.14118336 -0.105115466

rnn.bias_hh_l0 f4 [256]
00000000: 699a ca3d 4856 c1bd 18b4 2dbd 4179 e0bd
00000010: 5697 053d 66f9 273d b27f babd 2e7b 22bd
00000020: c587 573d 3b7b 9dbd 1e10 eebd 7bbe c83c
00000030: 86c5 c5bc bb4b e9bc e41a 073d 966d bd3d
00000040: 4a98 37bb 2cdc c03d f240 b33c a8a6 993d
00000050: 6463 61bd 2d40 fabd f826 363d 20df a5bd
00000060: 3cc2 bbbd ef3e 87bd 9b4c 6c3d 5fcf c73d
00000070: bd00 4d3d b7ee d0bc cdff 0abe 11bb a9bc
00000080: 3f49 323d 4d25 13bd e150 99bc c285 af3c
00000090: f0b3 58bc 3cf0 ee3d 65e9 773d 9422 193d
000000a0: e01c bb3d 8815 7a3d 9a8b d53d a19c 653d
000000b0: 93ce 553d e052 d6bd 6aab 013c bf9b 4ebd
000000c0: 7cca 1bbd 8515 89bd 0110 04bc 0367 e93d
000000d0: a802 d43d 331a f33d fd37 37bc 91ef fcbc
000000e0: 4ff7 e3bc 49cc bfba 95af 193b 52c3 7abd
000000f0: 5785 c33d 146a 00be 43d5 f8bd 74cb babd
00000100: 00e0 fe3d 0662 c2bd 3aff 1e3d f0a2 cfbc
00000110: ee5e 573c a2ee 593d 6810 d8bd 8603 853d
00000120: 78ec c93b e850 c03d 9477 babd d113 963d
00000130: 62cf b93d 4a0c 913d 578b f3bd ce92 f33d
00000140: b94b aebd c9f6 94bd c421 dcbd de64 4d3c
00000150: 0c9d f83d e492 9f3d ed7b 9dbc 2d17 da3c
00000160: f377 c13c 5cda 7cbd 9225 e0bd a0bc f6bd
00000170: 8514 02be 65da d53d 45e7 19bd b116 9ebd
00000180: 204b 8fbd 0d47 05be affa 0c3d a42b efbb
00000190: 9fee 243d 3efb 11bd edfb 333d 2854 4fbd
000001a0: a41a 483d 507c a93d 6628 e03d f8ad b23d
000001b0: 1967 bcbd 3877 e5bd ae26 073d fb22 dcbd
000001c0: 7bf8 a5bd 6ddc e93d cfef 163d 9d2f 99bd
000001d0: ba55 4a3d 295b dabd 8bb5 603d 992b e13c
000001e0: 3ecc 89bc 4fd4 aebd 6d56 e2bd 47a8 9abc
000001f0: b3ed d43c 6200 2abd c9f4 08be e70f d9bc
00000200: 60b1 c9bd 6c43 0ebd 4885 dcbd 846b 953d
00000210: a47a 903d c3f4 69bd 6533 403c ec71 ba3d
00000220: 20d7 aa3d 9a9a da3d 6160 c9bd 9351 dd3d
00000230: af5a 043c 24c9 84bd 523b 8fbc 6e09 95bd
00000240: c9f0 6f3d 8da3 27bb c0e7 ccb9 c1d5 ebbd
00000250: 60c1 3bbd 3644 523d 0779 a13d d68c 043c
00000260: b299 93bd 81af 013d 1791 c0bd 6baf 5bbd
00000270: 77b5 f23d 062a 4ebd a2f6 243d f15d cbbd
00000280: 8f81 983d 6d18 d43c 8847 32bd 175a bbbb
00000290: a30d 8c3d 2aa1 333d 481a a33d c28a 7f3d
000002a0: 6c59 41bd 8dba 97bd 414d 10bd 1aca 9ebd
000002b0: d3fc 5e3d 3f74 38bd 106d 3fbd b6a5 8a3d
000002c0: 74f4 963d 88c5 eb3d 6458 edbd 90a3 b53c
000002d0: 0c1b 4bbd 4f74 f5bc 67f4 e7bd 699a c5ba
000002e0: 7fa1 8dbd e937 a3bd 37b6 c9bc 600f ba3d
000002f0: d694 be3d 97a0 853d 5197 d4bd aef6 b23d
00000300: ee54 af3d b6d7 ebbd b603 c83d c3b9 933d
00000310: 12dd fcbd bd9c 33bd 64ab d23d b00e 7bbc
00000320: 9642 fcbc 3a29 653d 7233 a23d e7ff babd
00000330: c505 bbbd 9c71 7d3c eeef ec3c 655c a73d
00000340: 86db f6bd befd 3a3d 367a 8abd 6df8 43bd
00000350: bb19 9a3d 8022 a43d 0a70 583c 35ce acbd
00000360: 9b87 763d 593e a93d 5e19 84bd 72ad a7bd
00000370: d1c6 19bb 65a2 9fbd 78e5 eaba 00ee 5ebd
00000380: 846b 7bbd c4c5 363d d128 8d3c 7f26 2d3d
00000390: f355 15bd 8dc0 e7bc 2896 a9bd 52ab e1bd
000003a0: ca8b 6a3d 77f1 143d 2f4f 133c 030b 713d
000003b0: f54d a7bd 3ca9 8ebd 4417 80bd 0eb9 66bd
000003c0: 8169 90bc 5839 1c3c d1ec adbd 948f 21bd
000003d0: 79c4 dabd e0bb 83bd ee2e 7a3d e3bd dbbb
000003e0: a60c 0abd 2d3d fcbd f42f c0bd 7c8b 5f3d
000003f0: 86ff 7dbd 1da0 613a 8596 573b c751 f5bd
0.09892733 -0.09440285 -0.04240808 -0.10960627 0.03261503 0.04100933 -0.09106387 -0.039668255
0.052619714 -0.0768952 -0.11624168 0.02450489 -0.024142038 -0.028478494 0.03298463 0.092494175
-0.0028014355 0.094169945 0.021881554 0.0750249 -0.055026427 -0.12219272 0.044470757 -0.08099198
-0.09167907 -0.066038005 0.057690244 0.0975635 0.050049532 -0.025504453 -0.13574143 -0.020719083
0.043526884 -0.035924245 -0.018715324 0.021426085 -0.013226494 0.11666915 0.060525317 0.037386492
0.09136367 0.06105569 0.104270175 0.056057576 0.052198958 -0.10465026 0.007914403 -0.0504415
-0.0380349 -0.06693558 -0.008060456 0.11396601 0.10352069 0.118702315 -0.011182782 -0.030875953
-0.027827887 -0.0014633025 0.0023450602 -0.06122143 0.09546917 -0.12540466 -0.121500514 -0.09120837
0.12445068 -0.09491353 0.03881762 -0.02534625 0.013145192 0.053206094 -0.10550004 0.06494813
0.0061622225 0.09390432 -0.09104839 0.073279984 0.09072758 0.07082422 -0.11891811 0.11893235
-0.08510537 -0.07273633 -0.10748628 0.012536256 0.12139329 0.07791689 -0.019224131 0.02662238
0.023616767 -0.06173168 -0.10944666 -0.12047696 -0.1270314 0.10442046 -0.03757407 -0.07719172
-0.06996751 -0.13015385 0.034418758 -0.0072989035 0.04026663 -0.035639994 0.043941427 -0.050617367
0.04885353 0.08275664 0.109452054 0.08724588 -0.09199352 -0.1120438 0.032995872 -0.107488595
-0.081040345 0.11418996 0.036849793 -0.07479785 0.04939816 -0.10661919 0.054860633 0.02748661
-0.016821023 -0.085365884 -0.11051641 -0.018879069 0.02599225 -0.04150427 -0.13374628 -0.02649684
-0.09848285 -0.034732267 -0.10767609 0.072958976 0.07054642 -0.05711819 0.011731003 0.0910376
0.08341813 0.10674019 -0.09832836 0.10806575 0.008078261 -0.06483677 -0.01748434 -0.07277189
0.05857924 -0.0025579662 -0.0003908258 -0.1151538 -0.045838714 0.051334582 0.07884412 0.0080902185
-0.072070494 0.031661514 -0.09402674 -0.05363409 0.11851018 -0.050333045 0.04027427 -0.09930027
0.07446586 0.025890553 -0.04352525 -0.0057175267 0.068385385 0.04385487 0.07963997 0.06238819
-0.04720442 -0.074086286 -0.035229925 -0.077533916 0.05444033 -0.045032736 -0.04673487 0.06769888
0.073708445 0.115122855 -0.11589125 0.02217272 -0.04958634 -0.029962687 -0.11325913 -0.0015075925
-0.069155686 -0.079696484 -0.02462302 0.09084964 0.09305732 0.06524771 -0.10380424 0.08738457
0.08561121 -0.11515753 0.09766333 0.072131656 -0.12346853 -0.04385065 0.102865964 -0.015323326
-0.03079347 0.05594752 0.07919969 -0.09130841 -0.0913196 0.015468981 0.028923001 0.0817192
-0.120535895 0.045652144 -0.06761591 -0.04784434 0.07524439 0.08014393 0.013210306 -0.08437768
0.060187917 0.08263845 -0.06450151 -0.08187379 -0.002346445 -0.07794646 -0.001792117 -0.054426193
-0.06138183 0.044622198 0.017231377 0.04227304 -0.03645892 -0.028290058 -0.08280593 -0.11019005
0.05726222 0.03636309 0.008991047 0.058848392 -0.08169166 -0.06965873 -0.062544376 -0.056328826
-0.017628433 0.009535156 -0.08492435 -0.039443567 -0.106820054 -0.06432319 0.061079912 -0.006705986
-0.03370347 -0.12316356 -0.09384146 0.054576382 -0.062011264 0.00086069276 0.0032896113 -0.119784884

output_net.weight f4 [1, 64]
00000000: ae8f 0dbd 2c81 ae3d 998f 2c3d 752b c9bd
00000010: c4d3 34bd 2e02 f9bd a559 35bb 5341 0cbd
00000020: 7aae 9ebd d195 023e faa0 7ebc ca25 933c
00000030: 7497 4e3d 9816 8f3d d0e9 73bc 5145 61bd
00000040: 60f0 883d dab1 e03d 803a e1bb c67d ac3d
00000050: 43fa e2bd a4a3 5bbd e85f 453c 04eb 3fbd
00000060: 1703 823d b47f 603c 91f3 973d 1fad fd3c
00000070: 880c 11bd c857 a0bd c5ee 353c ca42 193c
00000080: a9c5 df3c c820 d2bb a0f9 3c3d c32d c73a
00000090: 0c2b babd 10e6 113d e25a 7cbd 005a 96bc
000000a0: 3d49 133d 5a83 83bd a2a0 9abb 1feb cf3d
000000b0: 7b7c dabc 76e3 4ebd 2435 c6bd 4be3 f43d
000000c0: 03f4 3bbc 6f17 893d 1382 4cbd 0f75 84bc
000000d0: 0dfc c3bc f41d f2bd 2598 2b3d 4c8b 2d3d
000000e0: 6473 323d c5f8 c3bc a896 bdbb 7de0 8abd
000000f0: e105 92bb 3a29 263c e156 2e3d ff2d cebd
-0.03456085 0.08520731 0.042129133 -0.09822742 -0.044147268 -0.12158619 -0.002767184 -0.034241986
-0.077481225 0.12752463 -0.0155413095 0.017962355 0.050437406 0.06986731 -0.014887288 -0.054997746
0.06686473 0.109714225 -0.006873429 0.08422427 -0.1108289 -0.053622857 0.012046792 -0.046854988
0.063482456 0.013702322 0.074195035 0.03096634 -0.03541234 -0.07829243 0.01110429 0.009354303
0.027315931 -0.0064125992 0.0461365 0.0015196133 -0.09090242 0.035619795 -0.06161011 -0.018353462
0.035958517 -0.06421538 -0.004718856 0.10152268 -0.026670685 -0.050509892 -0.096781045 0.11957415
-0.011471751 0.06693923 -0.049928736 -0.0161691 -0.023923898 -0.11822119 0.041893143 0.042369172
0.043567076 -0.023922333 -0.005785782 -0.06781099 -0.004456267 0.010141665 0.042563323 -0.10067367
